best-model-parameters.pt (torch, 6151 bytes, 17 tensors)

lstm.weight_ih_l0 f4 [8, 3]
0	0xbe930ee0	-0.28722286
1	0xbd880824	-0.06642178
2	0x3f3e326e	0.742957
3	0xbeb2113c	-0.34778774
4	0xbe9bc377	-0.30422565
5	0xbf3ec25e	-0.7451533
6	0x3eaedb5e	0.3415174
7	0xbf14966a	-0.58042014
8	0x3e989007	0.29797384
9	0x3f29d853	0.6634571
10	0x3edd04bf	0.43167683
11	0xbecbc2c0	-0.3979702
12	0x3f159845	0.5843547
13	0x3eabde61	0.335681
14	0x3f070047	0.527348
15	0xbd939fda	-0.07208224
16	0x3effec64	0.4998504
17	0xbdd371af	-0.10324418
18	0xbf0d47ad	-0.55187494
19	0xbf0faeec	-0.56126285
20	0x3e665794	0.22494346
21	0x3f086f8a	0.53295195
22	0x3ecb5f79	0.39721277
23	0xbf377261	-0.71658903

lstm.weight_hh_l0 f4 [8, 2]
0	0x3e7214d6	0.23640761
1	0x3f102d03	0.5631868
2	0x3ecd71b3	0.40125808
3	0xbef69d5a	-0.48166925
4	0xbb9c258e	-0.004765219
5	0x3e9f3052	0.31091553
6	0x3f0282ef	0.5098104
7	0x3db2a457	0.087227516
8	0x3ed7df21	0.4216242
9	0xbc417a89	-0.011809
10	0x3e078f7e	0.13238332
11	0x3e7abed3	0.24486856
12	0x3e2c44c3	0.16823106
13	0x3f488aef	0.78336996
14	0xbf4f097b	-0.8087384
15	0xbf368fd1	-0.71313196

lstm.bias_ih_l0 f4 [8]
0	0xbf416a85	-0.7555316
1	0x3e625d76	0.22105965
2	0x3f0c15af	0.54720587
3	0xbf10320d	-0.5632637
4	0x3f38b100	0.7214508
5	0xbe4df172	-0.20111635
6	0xbebfb8ba	-0.37445623
7	0x3f4e4121	0.8056813

lstm.bias_hh_l0 f4 [8]
0	0xbf177b83	-0.5917284
1	0x3f469b75	0.7758096
2	0x3eb0c4e6	0.34525222
3	0xbdfde770	-0.12397659
4	0xbf0a679f	-0.54064363
5	0xbefa6a95	-0.4890944
6	0x3eea35e7	0.4574425
7	0xbda23a26	-0.07921247

lstm.weight_ih_l1 f4 [8, 2]
0	0x3d5b90c2	0.05360485
1	0x3eccd5fd	0.4000701
2	0xbc711a54	-0.01471575
3	0x3dd55be7	0.104179196
4	0xbdd62952	-0.104571
5	0x3d39d15c	0.045365676
6	0xbf200d35	-0.6252015
7	0xbeb2b3af	-0.34902713
8	0x3e8beb40	0.2732792
9	0x3e6c61f2	0.23084238
10	0xbefb4d8e	-0.49082607
11	0xbebd9972	-0.37031132
12	0xbd18d72b	-0.037314575
13	0x3eec0be0	0.4610281
14	0x3f184074	0.5947335
15	0x3d73be78	0.059507817

lstm.weight_hh_l1 f4 [8, 2]
0	0x3eee6936	0.46564645
1	0xbe1eba3f	-0.15500735
2	0xbe9bb067	-0.30408022
3	0x3d184c9f	0.037182447
4	0x3c315d58	0.010825478
5	0xbeaa904e	-0.3331322
6	0x3ede0d45	0.433695
7	0xbf0ff4dd	-0.56233007
8	0x3df39ffc	0.11895749
9	0xbe3b4470	-0.18287826
10	0x3d3438d8	0.043999523
11	0x3ec18a11	0.3780065
12	0xbebb4690	-0.36577272
13	0xbd349489	-0.044086967
14	0x3f09ce46	0.53830373
15	0xbf3145c5	-0.69247085

lstm.bias_ih_l1 f4 [8]
0	0xbe29fb26	-0.16599712
1	0x3ed44dd6	0.41465634
2	0xbf1aff4d	-0.6054581
3	0xbd6d01f4	-0.05786319
4	0xbe52321f	-0.20526932
5	0x3e008df9	0.12554158
6	0x3e795a86	0.24350938
7	0x3ebadd17	0.36496803

lstm.bias_hh_l1 f4 [8]
0	0xbe85aa9d	-0.2610673
1	0x3f1fcbf9	0.6242061
2	0xbee83668	-0.4535401
3	0xbe908618	-0.28227305
4	0xbeecd376	-0.46255082
5	0x3f262493	0.6489956
6	0x3e54924d	0.20758934
7	0x3e87749f	0.26456162

lstm.weight_ih_l2 f4 [8, 2]
0	0xbf108923	-0.56459254
1	0xbdd30101	-0.10302926
2	0xbb44e004	-0.003004075
3	0xbf38706d	-0.7204655
4	0xbed8eb73	-0.42367133
5	0xbeafc563	-0.34330282
6	0xbe574189	-0.21021093
7	0xbdd85c29	-0.10564453
8	0xbf21c7c8	-0.63195467
9	0xbee54448	-0.44778657
10	0x3e9753e1	0.29556182
11	0xbf0c9637	-0.5491671
12	0xbf2ea7be	-0.68224704
13	0xbf0e3747	-0.55553097
14	0x3ce7e5b1	0.028307768
15	0x3de5f8b4	0.11229077

lstm.weight_hh_l2 f4 [8, 2]
0	0xbd88eaef	-0.06685435
1	0x3e1cca50	0.15311551
2	0xbdc452fa	-0.09586139
3	0xbe9288a3	-0.2861987
4	0x3b9d0487	0.0047917995
5	0xbf33f710	-0.7029886
6	0x3f2b7cd9	0.6698738
7	0xbed8c8e8	-0.4234078
8	0xbe02929b	-0.12751238
9	0xbeda7510	-0.42667437
10	0xbe4e9a38	-0.20176017
11	0xbf064f39	-0.52464634
12	0x3dc3de1a	0.09563847
13	0x3e84d955	0.2594706
14	0xbeacbf84	-0.33739865
15	0x3f2e2b92	0.68035233

lstm.bias_ih_l2 f4 [8]
0	0x3f287dc0	0.6581688
1	0x3f1aa22f	0.6040372
2	0x3d4d0efd	0.050063122
3	0xbf125f29	-0.5717645
4	0xbe9003fb	-0.28128037
5	0xbeac2576	-0.3362233
6	0xbf111ebf	-0.5668754
7	0x3eaca3f6	0.33718842

lstm.bias_hh_l2 f4 [8]
0	0x3c8877a4	0.016658612
1	0xbf1ace9d	-0.60471517
2	0xbf2508a2	-0.644663
3	0xbed2f52a	-0.4120267
4	0xbdec0945	-0.115252055
5	0x3f4aae1f	0.7917194
6	0xbefedc5d	-0.497775
7	0xbf027cd2	-0.5097171

lstm.weight_ih_l3 f4 [8, 2]
0	0x3f0d4858	0.5518851
1	0x3eead5a2	0.45866114
2	0x3ef0ae61	0.4700804
3	0xbefd5818	-0.49481273
4	0xbee75326	-0.45180625
5	0x3de95e5c	0.11394951
6	0xbe1d06a7	-0.15334569
7	0x3d9ca87d	0.07649324
8	0x3f1267cd	0.5718964
9	0xbd48b56b	-0.04900114
10	0xbe3e8a2f	-0.186074
11	0xbe98c001	-0.29833987
12	0x3c24c50c	0.010056745
13	0x3e31c15e	0.1735892
14	0xbe7cdfdc	-0.2469477
15	0x3d302573	0.043004464

lstm.weight_hh_l3 f4 [8, 2]
0	0xbe9408d1	-0.28912976
1	0xbe939c37	-0.2883012
2	0xbf1e9276	-0.6194223
3	0x3e097b15	0.13425858
4	0xbf0c6e6b	-0.54855984
5	0x3eedf26a	0.4647401
6	0xbefd944b	-0.495272
7	0x3e391a6c	0.18076485
8	0xbf2d3181	-0.6765366
9	0xbe8df27f	-0.27724072
10	0x3e13a433	0.14418106
11	0xbf31c00d	-0.6943367
12	0x3f231c7b	0.6371533
13	0x3ec5eb25	0.38655964
14	0x3de15914	0.110033184
15	0x3e10fc1f	0.14158677

lstm.bias_ih_l3 f4 [8]
0	0x3ead9751	0.33904508
1	0x3b9422a8	0.004520733
2	0x3ebda01f	0.37036225
3	0x3cf2ee00	0.029654503
4	0x3ef16078	0.47143912
5	0x3d99cedc	0.075101584
6	0xbee36a0f	-0.44416854
7	0xbf1e172a	-0.61754096

lstm.bias_hh_l3 f4 [8]
0	0xbe40d2fe	-0.18830487
1	0xbe88731a	-0.26650316
2	0x3d8dadc4	0.06917909
3	0xbf55be7e	-0.83493793
4	0x3f23656e	0.63826644
5	0xbed50147	-0.41602537
6	0x3e8cf190	0.27528048
7	0xbdfb21f8	-0.122623384

linear.weight f4 [1, 2]
0	0x3dc2b357	0.095068626
1	0xbd2ecee8	-0.04267779
